…
  "profanity_prob": 0.027414175301452005,
  "profanity_score": 0.030155592831597206,
  "text_score": 0.013725490196078431,
  "textblob_score": {
    "polarity": 0.09166666666666667,
    "subjectivity": 0.4916666666666667
  },
  "vader_score": { "compound": 0.3182, "neu": 0.935, "pos": 0.065, "neg": 0 },
  "sentiment_score": 0.09166666666666667,
  "sentiment_label": "Neutral",
  "one_shot_score": 0.12182225949826388,
  "model_score": {
    "models": [
      {
        "model": "Model (1: DebertaModel)",
        "details": "DAIGTModel(\n (model): DebertaModel(\n (embeddings): DebertaEmbeddings(\n (word_embeddings): Embedding(50265, 1024, padding_idx=0)\n (LayerNorm): DebertaLayerNorm()\n (dropout): StableDropout()\n )\n (encoder): DebertaEncoder(\n (layer): ModuleList(\n (0-23): 24 x DebertaLayer(\n (attention): DebertaAttention(\n (self): DisentangledSelfAttention(\n (in_proj): Linear(in_features=1024, out_features=3072, bias=False)\n (pos_dropout): StableDropout()\n (pos_proj): Linear(in_features=1024, out_features=1024, bias=False)\n (pos_q_proj): Linear(in_features=1024, out_features=1024, bias=True)\n (dropout): StableDropout()\n )\n (output): DebertaSelfOutput(\n (dense): Linear(in_features=1024, out_features=1024, bias=True)\n (LayerNorm): DebertaLayerNorm()\n (dropout): StableDropout()\n )\n )\n (intermediate): DebertaIntermediate(\n (dense): Linear(in_features=1024, out_features=4096, bias=True)\n (intermediate_act_fn): GELUActivation()\n )\n (output): DebertaOutput(\n (dense): Linear(in_features=4096, out_features=1024, bias=True)\n (LayerNorm): DebertaLayerNorm()\n (dropout): StableDropout()\n )\n )\n )\n (rel_embeddings): Embedding(1024, 1024)\n )\n )\n (classifier): Linear(in_features=1024, out_features=1, bias=True)\n)",
        "execution_type": "Parallel",
        "score": 0.891338050365448,
        "time": 1.5258047580718994,
        "device": "GPU"
      },
      {
        "model": "Model (2: DebertaV2Model)",
        "details": "DAIGTModel(\n (model): DebertaV2Model(\n (embeddings): DebertaV2Embeddings(\n (word_embeddings): Embedding(128100, 1024, padding_idx=0)\n (LayerNorm): LayerNorm((1024,), eps=1e-07, elementwise_affine=True)\n (dropout): StableDropout()\n )\n (encoder): DebertaV2Encoder(\n (layer): ModuleList(\n (0-23): 24 x DebertaV2Layer(\n (attention): DebertaV2Attention(\n (self): DisentangledSelfAttention(\n (query_proj): Linear(in_features=1024, out_features=1024, bias=True)\n (key_proj): Linear(in_features=1024, out_features=1024, bias=True)\n (value_proj): Linear(in_features=1024, out_features=1024, bias=True)\n (pos_dropout): StableDropout()\n (dropout): StableDropout()\n )\n (output): DebertaV2SelfOutput(\n (dense): Linear(in_features=1024, out_features=1024, bias=True)\n (LayerNorm): LayerNorm((1024,), eps=1e-07, elementwise_affine=True)\n (dropout): StableDropout()\n )\n )\n (intermediate): DebertaV2Intermediate(\n (dense): Linear(in_features=1024, out_features=4096, bias=True)\n (intermediate_act_fn): GELUActivation()\n )\n (output): DebertaV2Output(\n (dense): Linear(in_features=4096, out_features=1024, bias=True)\n (LayerNorm): LayerNorm((1024,), eps=1e-07, elementwise_affine=True)\n (dropout): StableDropout()\n )\n )\n )\n (rel_embeddings): Embedding(512, 1024)\n (LayerNorm): LayerNorm((1024,), eps=1e-07, elementwise_affine=True)\n )\n )\n (classifier): Linear(in_features=1024, out_features=1, bias=True)\n)",
        "execution_type": "Parallel",
        "score": 0.9695759415626526,
        "time": 7.341728210449219,
        "device": "CPU"
      }
    ],
    "model_avg": 0.9304569959640503,
    "execution_time": 7.354729413986206
  },
  "score": 0.9304569959640503,
  "device": "Mix",
  "parallel": 2,
  "max_length": 768,
  "max_memory": 0
}

  job_values : // for now the below values are not changing and aer dummy 
…
